job started at Thu Oct 28 04:23:04 CDT 2021
180323
180322
180605
(2460, 1)
(2460, 8)
(2460, 3401, 8, 8, 1)
(1845, 3401, 8, 8, 1)
(1845, 8)
Loading Conv3D
Model: "sequential"
_________________________________________________________________
Layer (type)                 Output Shape              Param #   
=================================================================
conv3d (Conv3D)              (None, 3392, 8, 8, 8)     88        
_________________________________________________________________
max_pooling3d (MaxPooling3D) (None, 339, 8, 8, 8)      0         
_________________________________________________________________
conv3d_1 (Conv3D)            (None, 330, 7, 7, 32)     10272     
_________________________________________________________________
max_pooling3d_1 (MaxPooling3 (None, 65, 7, 7, 32)      0         
_________________________________________________________________
conv3d_2 (Conv3D)            (None, 64, 6, 6, 32)      8224      
_________________________________________________________________
conv3d_3 (Conv3D)            (None, 62, 4, 4, 64)      55360     
_________________________________________________________________
max_pooling3d_2 (MaxPooling3 (None, 15, 4, 4, 64)      0         
_________________________________________________________________
flatten (Flatten)            (None, 15360)             0         
_________________________________________________________________
dense (Dense)                (None, 256)               3932416   
_________________________________________________________________
dropout (Dropout)            (None, 256)               0         
_________________________________________________________________
dense_1 (Dense)              (None, 256)               65792     
_________________________________________________________________
dropout_1 (Dropout)          (None, 256)               0         
_________________________________________________________________
dense_2 (Dense)              (None, 8)                 2056      
=================================================================
Total params: 4,074,208
Trainable params: 4,074,208
Non-trainable params: 0
_________________________________________________________________
None
Train on 1845 samples, validate on 542 samples
Epoch 1/500
  16/1845 [..............................] - ETA: 17:39 - loss: 2.5456 - accuracy: 0.2500
…
