job started at Thu Oct 28 15:59:26 CDT 2021
180323
180322
180605
(2460, 1)
(2460, 8)
(2460, 4201, 8, 8, 1)
(1845, 4201, 8, 8, 1)
(1845, 8)
Loading Conv3D no space
Model: "sequential"
_________________________________________________________________
Layer (type)                 Output Shape              Param #   
=================================================================
conv3d (Conv3D)              (None, 4192, 8, 8, 8)     88        
_________________________________________________________________
max_pooling3d (MaxPooling3D) (None, 419, 8, 8, 8)      0         
_________________________________________________________________
conv3d_1 (Conv3D)            (None, 410, 8, 8, 64)     5184      
_________________________________________________________________
max_pooling3d_1 (MaxPooling3 (None, 81, 8, 8, 64)      0         
_________________________________________________________________
conv3d_2 (Conv3D)            (None, 80, 8, 8, 64)      8256      
_________________________________________________________________
conv3d_3 (Conv3D)            (None, 78, 8, 8, 16)      3088      
_________________________________________________________________
max_pooling3d_2 (MaxPooling3 (None, 19, 8, 8, 16)      0         
_________________________________________________________________
flatten (Flatten)            (None, 19456)             0         
_________________________________________________________________
dense (Dense)                (None, 256)               4980992   
_________________________________________________________________
dropout (Dropout)            (None, 256)               0         
_________________________________________________________________
dense_1 (Dense)              (None, 256)               65792     
_________________________________________________________________
dropout_1 (Dropout)          (None, 256)               0         
_________________________________________________________________
dense_2 (Dense)              (None, 8)                 2056      
=================================================================
Total params: 5,065,456
Trainable params: 5,065,456
Non-trainable params: 0
_________________________________________________________________
None
Train on 1845 samples, validate on 542 samples
Epoch 1/500
  16/1845 [..............................] - ETA: 24:32 - loss: 2.4306 - accuracy: 0.1250
…
1845/1845 [==============================] - 997s 540ms/sample - loss: 0.1769 - accuracy: 0.9447 - val_loss: 0.6878 - val_accuracy: 0.7491
171128
171129
171130
171201b
(2042, 1)
(2042, 4)
(2042, 4201, 8, 8, 1)
(1531, 4201, 8, 8, 1)
(1531, 4)
Loading Conv3D no space
Model: "sequential_1"
_________________________________________________________________
Layer (type)                 Output Shape              Param #   
=================================================================
conv3d_4 (Conv3D)            (None, 4192, 8, 8, 8)     88        
_________________________________________________________________
max_pooling3d_3 (MaxPooling3 (None, 419, 8, 8, 8)      0         
_________________________________________________________________
conv3d_5 (Conv3D)            (None, 410, 8, 8, 64)     5184      
_________________________________________________________________
max_pooling3d_4 (MaxPooling3 (None, 81, 8, 8, 64)      0         
_________________________________________________________________
conv3d_6 (Conv3D)            (None, 80, 8, 8, 64)      8256      
_________________________________________________________________
conv3d_7 (Conv3D)            (None, 78, 8, 8, 16)      3088      
_________________________________________________________________
max_pooling3d_5 (MaxPooling3 (None, 19, 8, 8, 16)      0         
_________________________________________________________________
flatten_1 (Flatten)          (None, 19456)             0         
_________________________________________________________________
dense_3 (Dense)              (None, 256)               4980992   
_________________________________________________________________
dropout_2 (Dropout)          (None, 256)               0         
_________________________________________________________________
dense_4 (Dense)              (None, 256)               65792     
_________________________________________________________________
dropout_3 (Dropout)          (None, 256)               0         
_________________________________________________________________
dense_5 (Dense)              (None, 4)                 1028      
=================================================================
Total params: 5,064,428
Trainable params: 5,064,428
Non-trainable params: 0
_________________________________________________________________
None
Train on 1531 samples, validate on 450 samples
Epoch 1/500
  16/1531 [..............................] - ETA: 14:11 - loss: 2.2933 - accuracy: 0.3125
…
.9928 1531/1531 [==============================] - 822s 537ms/sample - loss: 0.0298 - accuracy: 0.9928 - val_loss: 0.2344 - val_accuracy: 0.9356
171215
171220
171221
(1731, 1)
(1731, 2)
(1731, 4201, 8, 8, 1)
(1298, 4201, 8, 8, 1)
(1298, 2)
Loading Conv3D no space
Model: "sequential_2"
_________________________________________________________________
Layer (type)                 Output Shape              Param #   
=================================================================
conv3d_8 (Conv3D)            (None, 4192, 8, 8, 8)     88        
_________________________________________________________________
max_pooling3d_6 (MaxPooling3 (None, 419, 8, 8, 8)      0         
_________________________________________________________________
conv3d_9 (Conv3D)            (None, 410, 8, 8, 64)     5184      
_________________________________________________________________
max_pooling3d_7 (MaxPooling3 (None, 81, 8, 8, 64)      0         
_________________________________________________________________
conv3d_10 (Conv3D)           (None, 80, 8, 8, 64)      8256      
_________________________________________________________________
conv3d_11 (Conv3D)           (None, 78, 8, 8, 16)      3088      
_________________________________________________________________
max_pooling3d_8 (MaxPooling3 (None, 19, 8, 8, 16)      0         
_________________________________________________________________
flatten_2 (Flatten)          (None, 19456)             0         
_________________________________________________________________
dense_6 (Dense)              (None, 256)               4980992   
_________________________________________________________________
dropout_4 (Dropout)          (None, 256)               0         
_________________________________________________________________
dense_7 (Dense)              (None, 256)               65792     
_________________________________________________________________
dropout_5 (Dropout)          (None, 256)               0         
_________________________________________________________________
dense_8 (Dense)              (None, 2)                 514       
=================================================================
Total params: 5,063,914
Trainable params: 5,063,914
Non-trainable params: 0
_________________________________________________________________
None
Train on 1298 samples, validate on 382 samples
Epoch 1/500
  16/1298 [..............................] - ETA: 13:18 - loss: 0.5719 - accuracy: 0.8125
…
