job started at Thu Oct 28 14:35:18 CDT 2021
180323
180322
180605
(2460, 1)
(2460, 8)
(2460, 4201, 8, 8, 1)
(1845, 4201, 8, 8, 1)
(1845, 8)
Loading Conv3D
Model: "sequential"
_________________________________________________________________
Layer (type)                 Output Shape              Param #   
=================================================================
conv3d (Conv3D)              (None, 4192, 8, 8, 8)     88        
_________________________________________________________________
max_pooling3d (MaxPooling3D) (None, 419, 8, 8, 8)      0         
_________________________________________________________________
conv3d_1 (Conv3D)            (None, 410, 7, 7, 32)     10272     
_________________________________________________________________
max_pooling3d_1 (MaxPooling3 (None, 81, 7, 7, 32)      0         
_________________________________________________________________
conv3d_2 (Conv3D)            (None, 80, 6, 6, 32)      8224      
_________________________________________________________________
conv3d_3 (Conv3D)            (None, 78, 4, 4, 64)      55360     
_________________________________________________________________
max_pooling3d_2 (MaxPooling3 (None, 19, 4, 4, 64)      0         
_________________________________________________________________
flatten (Flatten)            (None, 19456)             0         
_________________________________________________________________
dense (Dense)                (None, 256)               4980992   
_________________________________________________________________
dropout (Dropout)            (None, 256)               0         
_________________________________________________________________
dense_1 (Dense)              (None, 256)               65792     
_________________________________________________________________
dropout_1 (Dropout)          (None, 256)               0         
_________________________________________________________________
dense_2 (Dense)              (None, 8)                 2056      
=================================================================
Total params: 5,122,784
Trainable params: 5,122,784
Non-trainable params: 0
_________________________________________________________________
None
Train on 1845 samples, validate on 542 samples
Epoch 1/500
  16/1845 [..............................] - ETA: 13:41 - loss: 2.5616 - accuracy: 0.1250
…
 0.96631845/1845 [==============================] - 691s 375ms/sample - loss: 0.1231 - accuracy: 0.9664 - val_loss: 0.6782 - val_accuracy: 0.7620
171128
171129
171130
171201b
(2042, 1)
(2042, 4)
(2042, 4201, 8, 8, 1)
(1531, 4201, 8, 8, 1)
(1531, 4)
Loading Conv3D
Model: "sequential_1"
_________________________________________________________________
Layer (type)                 Output Shape              Param #   
=================================================================
conv3d_4 (Conv3D)            (None, 4192, 8, 8, 8)     88        
_________________________________________________________________
max_pooling3d_3 (MaxPooling3 (None, 419, 8, 8, 8)      0         
_________________________________________________________________
conv3d_5 (Conv3D)            (None, 410, 7, 7, 32)     10272     
_________________________________________________________________
max_pooling3d_4 (MaxPooling3 (None, 81, 7, 7, 32)      0         
_________________________________________________________________
conv3d_6 (Conv3D)            (None, 80, 6, 6, 32)      8224      
_________________________________________________________________
conv3d_7 (Conv3D)            (None, 78, 4, 4, 64)      55360     
_________________________________________________________________
max_pooling3d_5 (MaxPooling3 (None, 19, 4, 4, 64)      0         
_________________________________________________________________
flatten_1 (Flatten)          (None, 19456)             0         
_________________________________________________________________
dense_3 (Dense)              (None, 256)               4980992   
_________________________________________________________________
dropout_2 (Dropout)          (None, 256)               0         
_________________________________________________________________
dense_4 (Dense)              (None, 256)               65792     
_________________________________________________________________
dropout_3 (Dropout)          (None, 256)               0         
_________________________________________________________________
dense_5 (Dense)              (None, 4)                 1028      
=================================================================
Total params: 5,121,756
Trainable params: 5,121,756
Non-trainable params: 0
_________________________________________________________________
None
Train on 1531 samples, validate on 450 samples
Epoch 1/500
  16/1531 [..............................] - ETA: 10:02 - loss: 1.9583 - accuracy: 0.3125
…
curacy: 0.9967 1531/1531 [==============================] - 571s 373ms/sample - loss: 0.0229 - accuracy: 0.9967 - val_loss: 0.1745 - val_accuracy: 0.9400
171215
171220
171221
(1731, 1)
(1731, 2)
(1731, 4201, 8, 8, 1)
(1298, 4201, 8, 8, 1)
(1298, 2)
Loading Conv3D
Model: "sequential_2"
_________________________________________________________________
Layer (type)                 Output Shape              Param #   
=================================================================
conv3d_8 (Conv3D)            (None, 4192, 8, 8, 8)     88        
_________________________________________________________________
max_pooling3d_6 (MaxPooling3 (None, 419, 8, 8, 8)      0         
_________________________________________________________________
conv3d_9 (Conv3D)            (None, 410, 7, 7, 32)     10272     
_________________________________________________________________
max_pooling3d_7 (MaxPooling3 (None, 81, 7, 7, 32)      0         
_________________________________________________________________
conv3d_10 (Conv3D)           (None, 80, 6, 6, 32)      8224      
_________________________________________________________________
conv3d_11 (Conv3D)           (None, 78, 4, 4, 64)      55360     
_________________________________________________________________
max_pooling3d_8 (MaxPooling3 (None, 19, 4, 4, 64)      0         
_________________________________________________________________
flatten_2 (Flatten)          (None, 19456)             0         
_________________________________________________________________
dense_6 (Dense)              (None, 256)               4980992   
_________________________________________________________________
dropout_4 (Dropout)          (None, 256)               0         
_________________________________________________________________
dense_7 (Dense)              (None, 256)               65792     
_________________________________________________________________
dropout_5 (Dropout)          (None, 256)               0         
_________________________________________________________________
dense_8 (Dense)              (None, 2)                 514       
=================================================================
Total params: 5,121,242
Trainable params: 5,121,242
Non-trainable params: 0
_________________________________________________________________
None
Train on 1298 samples, validate on 382 samples
Epoch 1/500
  16/1298 [..............................] - ETA: 10:14 - loss: 0.8157 - accuracy: 0.3125
…
