job started at Thu Oct 28 10:41:19 CDT 2021
180323
180322
180605
(2460, 1)
(2460, 8)
(2460, 3401, 8, 8, 1)
(1845, 3401, 8, 8, 1)
(1845, 8)
Loading Conv3D no space
Model: "sequential"
_________________________________________________________________
Layer (type)                 Output Shape              Param #   
=================================================================
conv3d (Conv3D)              (None, 3392, 8, 8, 8)     88        
_________________________________________________________________
max_pooling3d (MaxPooling3D) (None, 339, 8, 8, 8)      0         
_________________________________________________________________
conv3d_1 (Conv3D)            (None, 330, 8, 8, 64)     5184      
_________________________________________________________________
max_pooling3d_1 (MaxPooling3 (None, 65, 8, 8, 64)      0         
_________________________________________________________________
conv3d_2 (Conv3D)            (None, 64, 8, 8, 64)      8256      
_________________________________________________________________
conv3d_3 (Conv3D)            (None, 62, 8, 8, 16)      3088      
_________________________________________________________________
max_pooling3d_2 (MaxPooling3 (None, 15, 8, 8, 16)      0         
_________________________________________________________________
flatten (Flatten)            (None, 15360)             0         
_________________________________________________________________
dense (Dense)                (None, 256)               3932416   
_________________________________________________________________
dropout (Dropout)            (None, 256)               0         
_________________________________________________________________
dense_1 (Dense)              (None, 256)               65792     
_________________________________________________________________
dropout_1 (Dropout)          (None, 256)               0         
_________________________________________________________________
dense_2 (Dense)              (None, 8)                 2056      
=================================================================
Total params: 4,016,880
Trainable params: 4,016,880
Non-trainable params: 0
_________________________________________________________________
None
Train on 1845 samples, validate on 542 samples
Epoch 1/500
  16/1845 [..............................] - ETA: 19:46 - loss: 2.2923 - accuracy: 0.1250
…
