job started at Thu Oct 28 21:26:24 CDT 2021
171128
171129
171130
171201b
(2042, 1)
(2042, 4)
(2042, 4201, 8, 8, 1)
(1531, 4201, 8, 8, 1)
(1531, 4)
Loading Conv3D no space
Model: "sequential"
_________________________________________________________________
Layer (type)                 Output Shape              Param #   
=================================================================
conv3d (Conv3D)              (None, 4192, 8, 8, 8)     88        
_________________________________________________________________
max_pooling3d (MaxPooling3D) (None, 419, 8, 8, 8)      0         
_________________________________________________________________
conv3d_1 (Conv3D)            (None, 410, 8, 8, 64)     5184      
_________________________________________________________________
max_pooling3d_1 (MaxPooling3 (None, 81, 8, 8, 64)      0         
_________________________________________________________________
conv3d_2 (Conv3D)            (None, 80, 8, 8, 64)      8256      
_________________________________________________________________
conv3d_3 (Conv3D)            (None, 78, 8, 8, 16)      3088      
_________________________________________________________________
max_pooling3d_2 (MaxPooling3 (None, 19, 8, 8, 16)      0         
_________________________________________________________________
flatten (Flatten)            (None, 19456)             0         
_________________________________________________________________
dense (Dense)                (None, 256)               4980992   
_________________________________________________________________
dropout (Dropout)            (None, 256)               0         
_________________________________________________________________
dense_1 (Dense)              (None, 256)               65792     
_________________________________________________________________
dropout_1 (Dropout)          (None, 256)               0         
_________________________________________________________________
dense_2 (Dense)              (None, 4)                 1028      
=================================================================
Total params: 5,064,428
Trainable params: 5,064,428
Non-trainable params: 0
_________________________________________________________________
None
Train on 1531 samples, validate on 450 samples
Epoch 1/500
  16/1531 [..............................] - ETA: 19:03 - loss: 1.5850 - accuracy: 0.1250
…
.9783 1531/1531 [==============================] - 826s 540ms/sample - loss: 0.0754 - accuracy: 0.9784 - val_loss: 0.2618 - val_accuracy: 0.9156
171215
171220
171221
(1731, 1)
(1731, 2)
(1731, 4201, 8, 8, 1)
(1298, 4201, 8, 8, 1)
(1298, 2)
Loading Conv3D no space
Model: "sequential_1"
_________________________________________________________________
Layer (type)                 Output Shape              Param #   
=================================================================
conv3d_4 (Conv3D)            (None, 4192, 8, 8, 8)     88        
_________________________________________________________________
max_pooling3d_3 (MaxPooling3 (None, 419, 8, 8, 8)      0         
_________________________________________________________________
conv3d_5 (Conv3D)            (None, 410, 8, 8, 64)     5184      
_________________________________________________________________
max_pooling3d_4 (MaxPooling3 (None, 81, 8, 8, 64)      0         
_________________________________________________________________
conv3d_6 (Conv3D)            (None, 80, 8, 8, 64)      8256      
_________________________________________________________________
conv3d_7 (Conv3D)            (None, 78, 8, 8, 16)      3088      
_________________________________________________________________
max_pooling3d_5 (MaxPooling3 (None, 19, 8, 8, 16)      0         
_________________________________________________________________
flatten_1 (Flatten)          (None, 19456)             0         
_________________________________________________________________
dense_3 (Dense)              (None, 256)               4980992   
_________________________________________________________________
dropout_2 (Dropout)          (None, 256)               0         
_________________________________________________________________
dense_4 (Dense)              (None, 256)               65792     
_________________________________________________________________
dropout_3 (Dropout)          (None, 256)               0         
_________________________________________________________________
dense_5 (Dense)              (None, 2)                 514       
=================================================================
Total params: 5,063,914
Trainable params: 5,063,914
Non-trainable params: 0
_________________________________________________________________
None
Train on 1298 samples, validate on 382 samples
Epoch 1/500
  16/1298 [..............................] - ETA: 12:00 - loss: 0.9469 - accuracy: 0.7500
…
