job started at Fri Oct 29 18:48:22 CDT 2021
180323
180322
180605
(2460, 1)
(2460, 8)
(2460, 3401, 8, 8, 1)
(1845, 3401, 8, 8, 1)
(1845, 8)
Loading conv_3d_2by2
Model: "sequential"
_________________________________________________________________
Layer (type)                 Output Shape              Param #   
=================================================================
conv3d (Conv3D)              (None, 3392, 8, 8, 8)     88        
_________________________________________________________________
max_pooling3d (MaxPooling3D) (None, 339, 8, 8, 8)      0         
_________________________________________________________________
conv3d_1 (Conv3D)            (None, 330, 7, 7, 64)     20544     
_________________________________________________________________
max_pooling3d_1 (MaxPooling3 (None, 66, 7, 7, 64)      0         
_________________________________________________________________
conv3d_2 (Conv3D)            (None, 65, 6, 6, 64)      32832     
_________________________________________________________________
conv3d_3 (Conv3D)            (None, 64, 5, 5, 64)      32832     
_________________________________________________________________
flatten (Flatten)            (None, 102400)            0         
_________________________________________________________________
dense (Dense)                (None, 512)               52429312  
_________________________________________________________________
dropout (Dropout)            (None, 512)               0         
_________________________________________________________________
dense_1 (Dense)              (None, 512)               262656    
_________________________________________________________________
dropout_1 (Dropout)          (None, 512)               0         
_________________________________________________________________
dense_2 (Dense)              (None, 8)                 4104      
=================================================================
Total params: 52,782,368
Trainable params: 52,782,368
Non-trainable params: 0
_________________________________________________________________
None
Train on 1845 samples, validate on 542 samples
Epoch 1/500
  16/1845 [..............................] - ETA: 11:57 - loss: 2.8699 - accuracy: 0.0625
…
71845/1845 [==============================] - 580s 314ms/sample - loss: 0.0312 - accuracy: 0.9957 - val_loss: 0.9232 - val_accuracy: 0.7085
171128
171129
171130
171201b
(2042, 1)
(2042, 4)
(2042, 3401, 8, 8, 1)
(1531, 3401, 8, 8, 1)
(1531, 4)
Loading conv_3d_2by2
Model: "sequential_1"
_________________________________________________________________
Layer (type)                 Output Shape              Param #   
=================================================================
conv3d_4 (Conv3D)            (None, 3392, 8, 8, 8)     88        
_________________________________________________________________
max_pooling3d_2 (MaxPooling3 (None, 339, 8, 8, 8)      0         
_________________________________________________________________
conv3d_5 (Conv3D)            (None, 330, 7, 7, 64)     20544     
_________________________________________________________________
max_pooling3d_3 (MaxPooling3 (None, 66, 7, 7, 64)      0         
_________________________________________________________________
conv3d_6 (Conv3D)            (None, 65, 6, 6, 64)      32832     
_________________________________________________________________
conv3d_7 (Conv3D)            (None, 64, 5, 5, 64)      32832     
_________________________________________________________________
flatten_1 (Flatten)          (None, 102400)            0         
_________________________________________________________________
dense_3 (Dense)              (None, 512)               52429312  
_________________________________________________________________
dropout_2 (Dropout)          (None, 512)               0         
_________________________________________________________________
dense_4 (Dense)              (None, 512)               262656    
_________________________________________________________________
dropout_3 (Dropout)          (None, 512)               0         
_________________________________________________________________
dense_5 (Dense)              (None, 4)                 2052      
=================================================================
Total params: 52,780,316
Trainable params: 52,780,316
Non-trainable params: 0
_________________________________________________________________
None
Train on 1531 samples, validate on 450 samples
Epoch 1/500
  16/1531 [..............................] - ETA: 8:42 - loss: 1.6550 - accuracy: 0.3125
…
