job started at Sat Oct 30 21:22:36 CDT 2021
180323
180322
180605
(2460, 1)
(2460, 8)
(2460, 4201, 8, 8, 1)
(1845, 4201, 8, 8, 1)
(1845, 8)
Loading conv_3d_2by2
Model: "sequential"
_________________________________________________________________
Layer (type)                 Output Shape              Param #   
=================================================================
conv3d (Conv3D)              (None, 4192, 8, 8, 8)     88        
_________________________________________________________________
max_pooling3d (MaxPooling3D) (None, 419, 8, 8, 8)      0         
_________________________________________________________________
conv3d_1 (Conv3D)            (None, 410, 7, 7, 64)     20544     
_________________________________________________________________
max_pooling3d_1 (MaxPooling3 (None, 82, 7, 7, 64)      0         
_________________________________________________________________
conv3d_2 (Conv3D)            (None, 81, 6, 6, 64)      32832     
_________________________________________________________________
conv3d_3 (Conv3D)            (None, 80, 5, 5, 64)      32832     
_________________________________________________________________
flatten (Flatten)            (None, 128000)            0         
_________________________________________________________________
dense (Dense)                (None, 512)               65536512  
_________________________________________________________________
dropout (Dropout)            (None, 512)               0         
_________________________________________________________________
dense_1 (Dense)              (None, 512)               262656    
_________________________________________________________________
dropout_1 (Dropout)          (None, 512)               0         
_________________________________________________________________
dense_2 (Dense)              (None, 8)                 4104      
=================================================================
Total params: 65,889,568
Trainable params: 65,889,568
Non-trainable params: 0
_________________________________________________________________
None
Train on 1845 samples, validate on 542 samples
Epoch 1/500
  16/1845 [..............................] - ETA: 22:13 - loss: 2.6034 - accuracy: 0.1875
…
91845/1845 [==============================] - 739s 400ms/sample - loss: 0.0290 - accuracy: 0.9989 - val_loss: 0.8095 - val_accuracy: 0.7472
171128
171129
171130
171201b
(2042, 1)
(2042, 4)
(2042, 4201, 8, 8, 1)
(1531, 4201, 8, 8, 1)
(1531, 4)
Loading conv_3d_2by2
Model: "sequential_1"
_________________________________________________________________
Layer (type)                 Output Shape              Param #   
=================================================================
conv3d_4 (Conv3D)            (None, 4192, 8, 8, 8)     88        
_________________________________________________________________
max_pooling3d_2 (MaxPooling3 (None, 419, 8, 8, 8)      0         
_________________________________________________________________
conv3d_5 (Conv3D)            (None, 410, 7, 7, 64)     20544     
_________________________________________________________________
max_pooling3d_3 (MaxPooling3 (None, 82, 7, 7, 64)      0         
_________________________________________________________________
conv3d_6 (Conv3D)            (None, 81, 6, 6, 64)      32832     
_________________________________________________________________
conv3d_7 (Conv3D)            (None, 80, 5, 5, 64)      32832     
_________________________________________________________________
flatten_1 (Flatten)          (None, 128000)            0         
_________________________________________________________________
dense_3 (Dense)              (None, 512)               65536512  
_________________________________________________________________
dropout_2 (Dropout)          (None, 512)               0         
_________________________________________________________________
dense_4 (Dense)              (None, 512)               262656    
_________________________________________________________________
dropout_3 (Dropout)          (None, 512)               0         
_________________________________________________________________
dense_5 (Dense)              (None, 4)                 2052      
=================================================================
Total params: 65,887,516
Trainable params: 65,887,516
Non-trainable params: 0
_________________________________________________________________
None
Train on 1531 samples, validate on 450 samples
Epoch 1/500
  16/1531 [..............................] - ETA: 10:48 - loss: 1.4816 - accuracy: 0.3125
…
